model.onnx (onnx, 27841 bytes, 6 tensors)

hl1.bias f4 [64]
0.04815871 0.14925487 -0.06924051 -0.06585637 -0.019668026 -0.04585968 -0.12384717 -0.0058170445
-0.1120838 -0.04025686 -0.10426855 -0.10699646 -0.16044506 0.11706319 0.0019006617 -0.068488635
-0.08056787 0.01826564 -0.10271532 0.057405245 0.16425061 0.041183215 0.055677164 0.13236867
0.15546817 -0.13976587 0.04885665 -0.082668506 0.103858665 -0.08859505 0.13944182 0.10835371
0.006239928 -0.11631653 -0.11409901 -0.05557637 0.12791947 0.11391136 0.09617367 -0.050296877
-0.071897134 -0.1511025 -0.14357147 0.113573395 0.12117283 -0.010675616 -0.06923453 -0.0749238
-0.090155564 -0.08105145 0.0075497916 0.097367436 -0.054985534 -0.15489475 -0.09163578 -0.021453805
-0.11638593 -0.09630707 0.048524052 0.06645851 0.07837365 -0.021425605 0.06974623 0.0771946
00000000: 1142 453d 45d6 183e f8cd 8dbd b4df 86bd
00000010: d71e a1bc 5cd7 3bbd 96a3 fdbd e89c bebb
00000020: 318c e5bd 61e4 24bd c08a d5bd f620 dbbd
00000030: b64b 24be d3be ef3d a01f f93a c543 8cbd
00000040: c400 a5bd d3a1 953c 695c d2bd c321 6b3d
00000050: 5031 283e bbaf 283d bd0d 643d a78b 073e
00000060: 0c33 1f3e c91e 0fbe e91d 483d 1b4e a9bd
00000070: dab3 d43d 5271 b5bd d6c9 0e3e 8de8 dd3d
00000080: 4f78 cc3b 5c37 eebd beac e9bd 0ca4 63bd
00000090: 52fd 023e 5c4a e93d b3f6 c43d 1904 4ebd
000000a0: ce3e 93bd 9dba 1abe 6604 13be 2b99 e83d
000000b0: 7629 f83d c7e8 2ebc d5ca 8dbd a671 99bd
000000c0: 7ba3 b8bd 4dfe a5bd 3e64 f73b 9468 c73d
000000d0: 8338 61bd bb9c 1ebe 8aab bbbd e4bf afbc
000000e0: bf5b eebd a43c c5bd 28c1 463d 661b 883d
000000f0: 5d82 a03d c084 afbc 1dd7 8e3d 3418 9e3d

hl2.bias f4 [64]
0.043801665 -0.06294449 -0.024005875 0.060571223 -0.06280109 -0.0896523 0.033208907 -0.06495434
-0.10968149 0.04173036 -0.12400189 -0.032416373 0.05696632 0.11148234 0.11838435 -0.11475848
-0.08069223 0.09078471 0.065828696 -0.07538003 0.11453724 -0.09362207 0.04143876 -0.111211
-0.032293633 0.040549666 0.055263072 -0.07945289 -0.11213064 -0.090819836 0.033437863 0.10296668
0.12207022 0.08898179 -0.044720873 5.5998564e-05 0.01042822 -0.10503936 -0.026463196 -0.069005534
-0.07195473 -0.08967407 -0.12336004 -0.015375242 0.043953046 -0.04611948 -0.07918207 -0.114892974
0.063131735 0.031714156 -0.029879272 0.0927673 -0.10054158 0.051821694 -0.12031622 -0.12248556
-0.0071901977 -0.09083235 -0.056609064 -0.013685748 0.04586956 -0.11020742 0.040070698 -0.019090578
00000000: 6069 333d 0ae9 80bd f8a7 c4bc 8819 783d
00000010: dc9d 80bd a09b b7bd 1006 083d c806 85bd
00000020: b0a0 e0bd 74ed 2a3d b4f4 fdbd 08c7 04bd
00000030: 8455 693d da50 e43d 7e73 f23d 7e06 ebbd
00000040: f841 a5bd 56ed b93d 32d1 863d d860 9abd
00000050: 8092 ea3d eebc bfbd b0bb 293d 98c2 e3bd
00000060: 5446 04bd 6817 263d 885b 623d 32b8 a2bd
00000070: c0a4 e5bd c0ff b9bd 24f6 083d 32e0 d23d
00000080: f4ff f93d 163c b63d 3c2d 37bd 00e0 6a38
00000090: 20db 2a3c e01e d7bd 58c9 d8bc c652 8dbd
000000a0: 005d 93bd 0aa7 b7bd 30a4 fcbd 70e8 7bbc
000000b0: 1c08 343d c8e7 3cbd 362a a2bd 024d ebbd
000000c0: 364b 813d b4e6 013d 60c5 f4bc c8fc bd3d
000000d0: bee8 cdbd fc42 543d 5a68 f6bd b6d9 fabd
000000e0: c09b ebbb 5006 babd e8de 67bd 303a 60bc
000000f0: b8e1 3b3d 6eb4 e1bd 2c21 243d d863 9cbc

out.bias f4 [4]
-0.11449559 -0.018635064 0.02604501 0.040149465
00000000: aa7c eabd 90a8 98bc 585c d53c c473 243d

18 f4 [37, 64]
0.16236024 0.10914284 -0.13615106 0.038726676 0.05163637 -0.022376964 -0.16174564 0.06396748
-0.08169324 -0.056648415 0.11740537 -0.1535632 0.108051255 -0.16407475 0.075622305 -0.15862104
0.076473184 -0.09807537 0.021886919 -0.0037315746 0.04201042 0.03369731 0.05785447 0.038324215
0.08527234 0.103040375 0.049834896 -0.047549546 -0.1410276 0.1179244 -0.014818432 0.015283039
0.0543535 -0.064728014 -0.09115659 -0.055374395 -0.084308796 0.062879995 0.05170622 -0.112848096
-0.045356505 -0.0936057 -0.15109625 -0.09817479 0.02590478 0.1279125 0.101299554 0.103393294
-0.13680634 -0.13598612 0.104389235 -0.09455794 -0.07218697 -0.023787444 -0.0011585291 0.0240518
-0.017603723 -0.099795945 -0.10143536 0.044907734 0.08746174 0.049038477 0.0862015 -0.0040628575
0.023445383 0.07406016 0.0059923083 0.022270292 -0.12848479 0.08740083 0.16109192 -0.13514516
0.056613196 0.08085114 -0.079962194 0.13873363 -0.16277644 0.030121205 -0.15642868 -0.10449867
0.1475239 -0.036863055 -0.048521467 -0.15545888 -0.014314904 -0.11977617 -0.09255609 0.07201225
0.1267069 0.026972199 0.16153502 -0.15922543 0.038692363 -0.09019829 -0.14970423 0.070645675
0.11957866 0.06802179 0.05813109 -0.050992817 0.062035777 -0.11888648 0.14029968 0.014181442
-0.03027162 -0.050227813 0.07766432 -0.1226449 0.04425475 0.12958664 -0.09486516 0.0215028
-0.054867458 -0.05445494 -0.130134 -0.10963122 0.13061748 0.027828744 -0.15137257 -0.13407059
0.07766507 0.0057653063 -0.039212 -0.06779732 0.0072301305 -0.068583824 -0.13178235 -0.1112592
0.023018502 0.0023924315 -0.10500195 -0.0781684 0.015010276 -0.020036526 -0.0454251 -0.06615094
-0.12113126 0.029108113 0.06516505 0.10896952 -0.14601715 -0.08034698 -0.08219389 -0.0042930343
0.09726156 0.11724406 0.15400068 -0.11846395 0.01258002 0.0008224057 0.1622728 -0.14738494
0.025638444 -0.13300332 -0.11832719 0.116986364 0.08413929 -0.12941903 0.13839859 -0.09098436
-0.03840825 -0.079864696 0.16317308 -0.080321565 0.019695856 0.09425582 -0.1156025 -0.105029464
0.15364109 -0.012449537 0.117803656 -0.009072999 0.1421176 -0.034280565 0.09702606 -0.03557616
-0.088898286 -0.06904778 -0.06427035 0.11807177 0.070386216 -0.1354971 -0.014716934 -0.06084685
-0.002663686 -0.11715645 0.08294864 0.092702255 -0.12507102 -0.02090389 0.10815138 0.106678195
-0.14812225 -0.08112829 -0.0111463955 0.035692826 -0.13936695 0.14107741 -0.15950245 -0.155861
-0.12716036 -0.08829277 -0.1490298 0.00875367 -0.03421048 -0.061976492 -0.015648108 -0.017801484
-0.011218261 -0.097086735 0.0047740648 0.09326534 0.12967247 -0.120339565 0.047198746 -0.023256242
0.04777604 -0.008818872 -0.14312713 -0.16095833 0.09986832 0.08781628 -0.06445568 -0.16037193
-0.019204693 -0.16104853 0.115720384 0.00629002 0.12390744 0.12993349 0.07100245 0.09459326
-0.16145855 0.1125488 0.08068679 0.06309992 -0.0053091063 0.11821972 -0.06640377 0.08120915
0.08687647 0.0029626517 0.07244276 -0.092869505 0.079091676 -0.09280326 -0.0145539 -0.08167266
0.15723102 0.05246646 0.041109916 -0.14713013 -0.13800526 0.12569223 -0.08073288 -0.037386965
00000000: c341 263e 4886 df3d 2f6b 0bbe dd9f 1e3d
00000010: a980 533d e54f b7bc a6a0 25be 6201 833d
00000020: c94e a7bd 2b08 68bd 3a72 f03d ac3f 1dbe
00000030: fa49 dd3d 3603 28be dedf 9a3d 8e6d 22be
00000040: f99d 9c3d bddb c8bd 324c b33c 6f8d 74bb
00000050: 1e13 2c3d 3106 0a3d cff8 6c3d daf9 1c3d
00000060: 44a3 ae3d d506 d33d ad1f 4c3d 50c3 42bd
00000070: 8a69 10be 5982 f13d 02c9 72bc b665 7a3c
00000080: c7a1 5e3d 1f90 84bd 4eb0 babd 43d0 62bd
00000090: 17aa acbd 3ac7 803d e7c9 533d e71c e7bd
000000a0: bec7 39bd 58b4 bfbd fab8 1abe dd0f c9bd
000000b0: 4336 d43c 7ffb 023e 2476 cf3d ddbf d33d
000000c0: f616 0cbe f23f 0bbe 06ca d53d 98a7 c1bd
000000d0: c3d6 93bd e3dd c2bc c9d9 97ba 4808 c53c
000000e0: af35 90bc d161 ccbd 58bd cfbd 2cf1 373d
000000f0: 241f b33d 92dc 483d 698a b03d b821 85bb
00000100: 8810 c03c daac 973d 205b c43b 3070 b63c
00000110: 8491 03be 35ff b23d 48f5 243e 7e63 0abe
00000120: 3de3 673d 4895 a53d 38c3 a3bd 3010 0e3e
00000130: deae 26be bfc0 f63c d72e 20be 6603 d6bd
00000140: 8110 173e b7fd 16bd 72be 46bd 9d30 1fbe
00000150: 0f89 6abc 354d f5bd 0c8e bdbd 297b 933d
00000160: 74bf 013e cdf4 dc3c 7069 253e fe0b 23be
00000170: e27b 1e3d e2b9 b8bd 114c 19be aeae 903d
00000180: a8e5 f43d 024f 8b3d de1a 6e3d d8dd 50bd
00000190: 3a19 7e3d c17a f3bd b8aa 0f3e 4759 683c
000001a0: 30fc f7bc aebb 4dbd 790e 9f3d 402d fbbd
000001b0: 7844 353d 5cb2 043e aa48 c2bd a426 b03c
000001c0: b3bc 60bd 250c 5fbd d941 05be 5586 e0bd
000001d0: 97c0 053e 1bf9 e33c 6901 1bbe cd49 09be
000001e0: dd0e 9f3d e5ea bc3b c39c 20bd 52d9 8abd
000001f0: bbea ec3b ad75 8cbd f4f1 06be dddb e3bd
00000200: 4c91 bc3c 57ca 1c3b 430b d7bd c116 a0bd
00000210: a9ed 753c a423 a4bc ab0f 3abd 257a 87bd
00000220: ab13 f8bd 2374 ee3c 4175 853d 692b df3d
00000230: 8585 15be f58c a4bd 4555 a8bd 95ac 8cbb
00000240: 1231 c73d a71d f03d 5bb2 1d3e 3a9d f2bd
00000250: 6e1c 4e3c b696 573a d72a 263e 14ec 16be
00000260: b707 d23c 0632 08be 8755 f2bd 8c96 ef3d
00000270: 3851 ac3d 6c86 04be 5cb8 0d3e 0256 babd
00000280: f851 1dbd 1a90 a3bd d816 273e a27f a4bd
00000290: 3459 a13c 3209 c13d 01c1 ecbd b019 d7bd
000002a0: 1754 1d3e 25f9 4bbc 0b43 f13d eaa6 14bc
000002b0: 4787 113e c769 0cbd 99b5 c63d 4fb8 11bd
000002c0: 4e10 b6bd ec68 8dbd 2ca0 83bd 9dcf f13d
000002d0: a626 903d c0bf 0abe 4c1f 71bc 8c3a 79bd
000002e0: 3c91 2ebb b9ef efbd fae0 a93d aeda bd3d
000002f0: 9e12 00be a23e abbc 797e dd3d 197a da3d
00000300: 5cad 17be 9726 a6bd 5f9f 36bc a432 123d
00000310: 36b6 0ebe 9976 103e 9c54 23be 079a 1fbe
00000320: 5336 02be d7d2 b4bd 459b 18be 8e6b 0f3c
00000330: 4a20 0cbd 10db 7dbd 7630 80bc 6bd4 91bc
00000340: cccc 37bc 69d5 c6bd c26f 9c3b e601 bf3d
00000350: dcc8 043e 9774 f6bd 7953 413d e083 bebc
00000360: cfb0 433d 087d 10bc eb8f 12be 43d2 24be
00000370: c387 cc3d 06d9 b33d 5701 84bd 8a38 24be
00000380: 2953 9dbc e8e9 24be cffe ec3d 831c ce3b
00000390: 2fc3 fd3d 490d 053e bc69 913d 1cba c13d
000003a0: 6455 25be fc7f e63d 1e3f a53d 883a 813d
000003b0: 03f8 adbb 2e1d f23d b3fe 87bd fc50 a63d
000003c0: 4aec b13d 0c29 423b df5c 943d 5e32 bebd
000003d0: d1fa a13d a30f bebd 7b73 6ebc ff43 a7bd
000003e0: 2b01 213e 12e7 563d df62 283d 48a9 16be
000003f0: 4051 0dbe 77b5 003e 4857 a5bd 1323 19bd

19 f4 [64, 64]
-0.025622234 0.0063616186 -0.06002949 0.11848706 0.028824791 -0.026415572 -0.058179587 0.09026101
-0.0003052652 0.099355236 -0.08614126 -0.08359264 0.090396404 -0.020661652 0.07231723 0.075157285
-0.023342058 -0.012585267 -0.028274044 0.06492095 -0.0047718734 -0.12351848 0.07073368 -0.049069315
-0.080345705 -0.0744409 0.1164103 -0.04414448 -0.092610136 -0.028600976 -0.07798101 0.014996782
-0.0039252937 0.03406985 0.03434582 -0.065390676 0.0335346 0.104660854 -0.09599094 -0.09483959
-0.03498827 -0.059846595 -0.078172505 -0.06521757 0.023089692 0.10121846 -0.050914437 0.1049611
0.11570771 0.08448742 0.06888226 -0.082468435 0.09512544 0.1177157 0.121602595 0.10961516
-0.12025078 -0.059199065 0.10064827 0.083069354 -0.008687064 -0.09240991 0.07910323 -0.007409781
-0.033166885 -0.07448205 -0.07672562 0.06851573 -0.080298275 0.025512949 0.02526325 -0.050447598
-0.027595818 -0.12171647 -0.009237483 0.1131725 -0.015831158 -0.12302348 -0.01369226 0.07459314
-0.06426431 -0.121433035 -0.045317516 -0.007582128 -0.08199544 -0.008470371 -0.0056290627 0.1196685
0.102648914 0.026861504 0.08557965 -0.066523686 0.054064542 -0.12094709 -0.07775076 0.037365854
-0.110884085 -0.11182934 -0.053502902 0.10917373 0.056537464 -0.12216894 0.04536116 0.09705666
-0.10496141 -0.0050086677 -0.052191466 -0.09848781 -0.105405346 0.09525661 0.08626829 -0.08167955
-0.11616501 0.012385935 -0.08459945 -0.1024254 0.112048924 -0.030167729 0.003509894 -0.08609496
0.037718162 -0.040523857 -0.112642005 0.044948563 -0.012088731 0.024601176 -0.05536838 -0.09491429
-0.036692634 0.10929814 0.07246436 -0.082978174 -0.021926567 -0.09248385 -0.063519835 0.10099581
0.11152589 -0.11654991 0.040158108 -0.09932767 -0.08716312 -0.086855605 -0.013628602 0.036445305
0.084132016 -0.054946676 -0.020361558 -0.10739611 0.11137903 -0.074971154 -0.08050509 0.05129026
0.019426882 0.030651748 -0.05872941 0.114225045 0.016168565 0.0061546415 0.059404895 -0.09006314
0.1244546 0.12394212 -0.09488644 -0.04778692 -0.077169016 0.014418393 -0.043519318 0.07168512
0.030584455 -0.037583143 0.0733802 0.0997383 -0.010845095 -0.012165219 -0.12081355 0.107409954
-0.09315707 0.0843056 -0.04336278 0.105417535 0.0018140823 0.12332946 -0.09875469 0.01882574
-0.044942662 0.043386206 0.06850153 -0.05995871 -0.022713587 -0.022615284 -0.0069643706 -0.09150955
-0.024760172 0.051575005 0.050330684 -0.10231157 -0.07695672 0.005188644 -0.10049866 0.010431409
0.10310125 0.06565784 0.09497252 -0.037805706 -0.09869349 0.102388084 -0.07657774 -0.11925489
-0.012844235 -0.01087153 -0.061026722 0.11206852 0.09147394 0.04398483 0.011949286 0.014477938
0.053529456 -0.010596871 0.08001678 0.031320527 -0.11568116 0.104332104 -0.02527219 -0.008230582
-0.044474155 -0.09712285 0.10052998 -0.088464454 0.040253058 -0.085078955 -0.0033227801 0.063268274
0.026626512 -0.10947971 -0.07066275 -0.090202585 -0.0269351 -0.0714169 -0.12038872 -0.048477396
-0.08565901 0.0785421 0.099228024 -0.014523655 0.020654857 -0.066269934 0.099268064 -0.08588569
0.102093816 -0.10997169 -0.08558014 0.09472215 0.07989459 -0.051355436 -0.122924104 0.05927895
00000000: b8e5 d1bc 2075 d03b 7ce1 75bd 58a9 f23d
00000010: f821 ec3c 7865 d8bc b84d 6ebd c4da b83d
00000020: 000c a0b9 c27a cb3d d46a b0bd 9e32 abbd
00000030: c021 b93d a042 a9bc 0e1b 943d 10ec 993d
00000040: d837 bfbc 7032 4ebc f89e e7bc 46f5 843d
00000050: 605d 9cbb 42f7 fcbd d2dc 903d e8fc 48bd
00000060: 4a8c a4bd 7874 98bd 8668 ee3d d8d0 34bd
00000070: 62aa bdbd 984c eabc 82b4 9fbd 10b5 753c
00000080: c09f 80bb d48c 0b3d 34ae 0c3d 8ceb 85bd
00000090: 945b 093d 6e58 d63d e696 c4bd 423b c2bd
000000a0: dc4f 0fbd b421 75bd e818 a0bd ca90 85bd
000000b0: 9826 bd3c a04b cf3d a88b 50bd d8f5 d63d
000000c0: 2af8 ec3d be07 ad3d 2412 8d3d 36e5 a8bd
000000d0: 20d1 c23d ee14 f13d c80a f93d ea7d e03d
000000e0: 0a46 f6bd b87a 72bd ae20 ce3d 4420 aa3d
000000f0: 3054 0ebc 6841 bdbd e000 a23d c0cd f2bb
00000100: 00da 07bd 0c8a 98bd 5222 9dbd fa51 8c3d
00000110: 6c73 a4bd 8800 d13c e0f4 ce3c 24a2 4ebd
00000120: a010 e2bc 7c46 f9bd d058 17bc fcc6 e73d
00000130: 58b0 81bc bcf3 fbbd 8055 60bc 4ac4 983d
00000140: 029d 83bd e2b1 f8bd dc9e 39bd 8073 f8bb
00000150: 3aed a7bd 50c7 0abc 0074 b8bb c214 f53d
00000160: 9839 d23d a80c dc3c 6244 af3d 923d 88bd
00000170: c872 5d3d 1cb3 f7bd ca3b 9fbd f00c 193d
00000180: 3217 e3bd c806 e5bd dc25 5bbd 7a96 df3d
00000190: d493 673d b633 fabd a0cc 393d a4c5 c63d
000001a0: 02f6 d6bd c01f a4bb b8c6 55bd fab3 c9bd
000001b0: c2de d7bd e615 c33d 6ead b03d 9c47 a7bd
000001c0: ece7 edbd 60ee 4a3c 7a42 adbd 68c4 d1bd
000001d0: e879 e53d 5022 f7bc 4006 663b 8e52 b0bd
000001e0: 5c7e 1a3d 58fc 25bd dab0 e6bd fc1b 383d
000001f0: d00f 46bc 6888 c93c f4c9 62bd 6c62 c2bd
00000200: 044b 16bd b4d7 df3d 3268 943d 76f0 a9bd
00000210: 589f b3bc 2c68 bdbd b016 82bd e4d6 ce3d
00000220: b067 e43d b8b1 eebd d47c 243d 4e6c cbbd
00000230: 9482 b2bd 5ae1 b1bd 804a 5fbc ac47 153d
00000240: 684d ac3d c40f 61bd 48cd a6bc 7ef2 dbbd
00000250: b01a e43d 7a8a 99bd dadf a4bd bc15 523d
00000260: 2025 9f3c 6019 fb3c 408e 70bd d2ee e93d
00000270: f073 843c e0ac c93b 8c52 733d 0673 b8bd
00000280: 0ee2 fe3d 5ed5 fd3d d253 c2bd 38bc 43bd
00000290: ca0a 9ebd 203b 6c3c 5041 32bd a6cf 923d
000002a0: 408c fa3c c8f0 19bd 5c48 963d 9843 cc3d
000002b0: a0af 31bc a050 47bc 186d f7bd c0f9 db3d
000002c0: 22c9 bebd 6aa8 ac3d 2c9d 31bd 26e5 d73d
000002d0: 80c6 ed3a 2894 fc3d e63f cabd 7038 9a3c
000002e0: cc15 38bd bcb5 313d 884a 8c3d 4497 75bd
000002f0: d811 babc b043 b9bc 6035 e4bb 5c69 bbbd
00000300: d8d5 cabc 5040 533d 8c27 4e3d ba88 d1bd
00000310: 7c9b 9dbd 8005 aa3b 3ed2 cdbd 80e8 2a3c
00000320: c026 d33d 9e77 863d f480 c23d 28da 1abd
00000330: d01f cabd d8b0 d13d cad4 9cbd e83b f4bd
00000340: a070 52bc 801e 32bc 28f7 79bd 2e84 e53d
00000350: b056 bb3d 7029 343d f0c6 433c e034 6d3c
00000360: b441 5b3d 809e 2dbc d6df a33d f449 003d
00000370: 3eea ecbd 12ac d53d a007 cfbc 90d9 06bc
00000380: 882a 36bd 58e8 c6bd aae2 cd3d da2c b5bd
00000390: 64e0 243d e03d aebd 00c3 59bb cc92 813d
000003a0: d81f da3c e636 e0bd a2b7 90bd 22bc b8bd
000003b0: 00a7 dcbc 0643 92bd 5c8e f6bd 3c90 46bd
000003c0: fe6d afbd aeda a03d 1038 cb3d a0f4 6dbc
000003d0: 6034 a93c 88b8 87bd 0e4d cb3d d6e4 afbd
000003e0: 9016 d13d d638 e1bd a444 afbd b0fd c13d
000003f0: c69f a33d 145a 52bd a2bf fbbd 7cce 723d

20 f4 [64, 4]
0.07369274 0.11526452 -0.040911555 0.0026434362 -0.025151268 -0.12442532 -0.048101902 -0.044577926
-0.124575585 -0.093313456 -0.022764668 0.07160896 0.013976961 0.10684347 -0.07068239 0.08460592
0.09523705 -0.07871163 -0.08091359 -0.053969428 0.029384911 -0.09528758 -0.047262594 -0.08528525
-0.11715293 0.102572426 0.112029105 -0.10484399 -0.05968462 -0.100293815 0.023481146 0.099509284
-0.119644776 -0.008243203 -0.04047203 -0.062008217 -0.027595773 -0.08006656 -0.05108349 -0.033020988
-0.116532326 0.018177211 0.05982688 0.0066115707 -0.06290348 -0.01637061 -0.101107076 0.099262744
-0.095578685 0.05929497 0.10114081 -0.1071665 -0.039177448 0.0095098615 -0.07357225 -0.025585383
0.10177405 -0.09236871 -0.07682091 0.08654176 -0.006115228 -0.10699752 0.045349285 0.02528122
0.03589423 0.011195093 0.030480847 0.06467016 0.10757381 0.040209085 0.027083829 0.041344643
-0.08844417 0.09178895 -0.09206411 0.020130023 0.02294235 0.090283826 0.07158315 0.048478767
0.07146753 -0.04288049 0.070411086 -0.056711942 0.047669858 0.08237788 0.102798894 -0.017334908
-0.078674346 0.11649771 0.07815258 0.031479433 -0.03568636 -0.016112924 -0.12154321 -0.02222675
0.0040715337 -0.002374068 0.09477252 -0.09055835 -0.026333809 0.107161745 -0.0848462 -0.05885087
0.039384544 0.0151847005 0.02471511 0.10732773 -0.078246266 0.08069417 -0.11143054 -0.025960341
-0.05542238 -0.030626506 0.0086429715 -0.041415796 0.067101136 0.0067177713 -0.09655106 -0.0042352527
0.059549168 0.11445469 -0.045233548 -0.08012104 -0.037291497 -0.08393876 -0.006357938 -0.08143437
0.0669827 0.11590016 -0.033462137 -0.033149853 -0.010853782 0.07783876 0.025511503 0.048513502
-0.03014569 -0.10318266 0.05795747 -0.07061371 0.057879284 0.109233245 0.10352744 -0.019344404
-0.105183855 0.01955834 0.034699097 0.09710099 -0.09871721 0.06633808 0.11173248 -0.0469376
-0.10090977 -0.032905415 0.017367572 0.09494193 -0.039702937 -0.064359576 0.10591118 -0.027620822
0.12203565 0.070663914 0.09542541 0.025608137 -0.053397015 -0.07431503 -0.11912672 -0.020105243
0.031008065 -0.08734606 -0.080482826 0.0836298 0.03675379 -0.00024305284 0.11165729 0.11700751
0.0205729 0.053538576 -0.040969774 -0.018835142 -0.07248567 -0.06843798 -0.024862036 0.014149949
0.0907079 -0.07892327 0.10150017 -0.08964996 -0.043692112 0.008649826 -0.1021077 0.05875285
0.1027922 0.020068675 0.08596204 -0.11918354 -0.12274155 -0.105838895 0.039916396 0.032817617
0.08066787 -0.042034596 0.05204147 0.044929057 0.11857937 0.084767595 -0.12333937 -0.019312933
-0.070232674 -0.099977404 -0.11157055 -0.018061757 0.030205548 0.12180777 0.03281203 -0.1014743
0.0043780506 0.021339595 -0.02381356 0.09886254 -0.040568843 -0.037361145 0.09250663 -0.0744745
-0.10698886 0.11205122 -0.11569184 0.004012808 0.05791442 0.015330523 -0.057420567 -0.05818355
0.023959935 -0.02132444 -0.022009075 0.007161677 0.01673679 0.02893427 0.07151556 0.029115185
0.033349454 -0.027059928 -0.11333679 0.044748098 -0.038868874 0.1014006 -0.062901884 -0.010282353
0.086424604 -0.059596077 -0.061014295 0.031746045 -0.06239763 0.11675236 -0.013865918 -0.100804806
00000000: 38ec 963d ce0f ec3d e092 27bd 803d 2d3b
00000010: 080a cebc b4d2 febd 8006 45bd 5897 36bd
00000020: 7c21 ffbd 201b bfbd f87c babc b8a7 923d
00000030: a0ff 643c c0d0 da3d eec1 90bd de45 ad3d
00000040: a40b c33d 9033 a1bd 06b6 a5bd 0c0f 5dbd
00000050: a0b8 f03c 2226 c3bd 6c96 41bd 08aa aebd
00000060: e0ed efbd 7e11 d23d 846f e53d 72b8 d6bd
00000070: dc77 74bd d866 cdbd 885b c03c 86cb cb3d
00000080: 5208 f5bd 800e 07bc 00c6 25bd 54fc 7dbd
00000090: 8810 e2bc f0f9 a3bd ec3c 51bd 0441 07bd
000000a0: 80a8 eebd 60e8 943c 080d 753d e0a5 d83b
000000b0: 8ad3 80bd a81b 86bc 3a11 cfbd 444a cb3d
000000c0: c2be c3bd 48df 723d ea22 cf3d 1c7a dbbd
000000d0: 8878 20bd 40cf 1b3c 0cad 96bd 7098 d1bc
000000e0: ea6e d03d ce2b bdbd 4854 9dbd ce3c b13d
000000f0: 4062 c8bb 8421 dbbd 2cc0 393d 901a cf3c
00000100: d405 133d a06b 373c f8b2 f93c ca71 843d
00000110: a84f dc3d 48b2 243d e8de dd3c 0059 293d
00000120: 3822 b5bd d8fb bb3d 1c8c bcbd b8e7 a43c
00000130: 98f1 bb3c bae6 b83d 309a 923d ac91 463d
00000140: 925d 923d 74a3 2fbd b033 903d c84a 68bd
00000150: 7841 433d bcb5 a83d 3a88 d23d f001 8ebc
00000160: 0420 a1bd 5a96 ee3d 760e a03d 94f0 003d
00000170: dc2b 12bd 40ff 83bc a6eb f8bd e014 b6bc
00000180: 806a 853b 4096 1bbb 1818 c23d a876 b9bd
00000190: 00ba d7bc 9e77 db3d d8c3 adbd 9c0d 71bd
000001a0: b051 213d 40c9 783c 5877 ca3c a4ce db3d
000001b0: 943f a0bd fc42 a53d b235 e4bd c8aa d4bc
000001c0: 9402 63bd 70e4 fabc 409b 0d3c 9ca3 29bd
000001d0: 526c 893d c020 dc3b 90bc c5bd e0c7 8abb
000001e0: d4e9 733d 3867 ea3d d046 39bd 8016 a4bd
000001f0: f8be 18bd 16e8 abbd 4056 d0bb 10c7 a6bd
00000200: 3a2e 893d 105d ed3d 980f 09bd 24c8 07bd
00000210: 10d4 31bc ee69 9f3d 80fd d03c 18b6 463d
00000220: 18f4 f6bc 6e51 d3bd d064 6d3d ec9d 90bd
00000230: d412 6d3d aeb5 df3d 3206 d43d 2878 9ebc
00000240: a26a d7bd d038 a03c a420 0e3d e2dc c63d
00000250: 402c cabd 42dc 873d 00d4 e43d a441 40bd
00000260: c8a9 cebd d4c7 06bd 7046 8e3c ea70 c23d
00000270: 8c9f 22bd f4ce 83bd f6e7 d83d 1045 e2bc
00000280: d4ed f93d 3eb8 903d 666e c33d 28c8 d13c
00000290: d4b6 5abd 7a32 98bd b6f8 f3bd c0b3 a4bc
000002a0: a004 fe3c 7ee2 b2bd 2ed4 a4bd 1a46 ab3d
000002b0: 248b 163d 00dc 7eb9 94ac e43d a2a1 ef3d
000002c0: 8088 a83c 444b 5b3d eccf 27bd 284c 9abc
000002d0: 5e73 94bd 3629 8cbd 78ab cbbc 30d5 673c
000002e0: 10c5 b93d 86a2 a1bd 52df cf3d 669a b7bd
000002f0: 80f6 32bd 00b8 0d3c d81d d1bd d4a6 703d
00000300: b884 d23d 1067 a43c de0c b03d 8016 f4bd
00000310: ec5f fbbd 10c2 d8bd 607f 233d c46b 063d
00000320: 3235 a53d 782c 2cbd 7029 553d 8807 383d
00000330: bed9 f23d a29a ad3d 5a99 fcbd 2836 9ebc
00000340: 26d6 8fbd f4c0 ccbd 1a7f e4bd 40f6 93bc
00000350: a071 f73c 5a76 f93d e865 063d c2d1 cfbd
00000360: c075 8f3b 60d0 ae3c a814 c3bc 7278 ca3d
00000370: 842b 26bd 0008 19bd 1e74 bd3d 1686 98bd
00000380: fa1c dbbd 1c7b e53d d8ef ecbd e07d 833b
00000390: ac37 6d3d e02c 7b3c d431 6bbd e051 6ebd
000003a0: a047 c43c 98b0 aebc 604c b4bc 80ac ea3b
000003b0: 981b 893c 9007 ed3c c076 923d f882 ee3c
000003c0: 7099 083d c8ac ddbc 1e1d e8bd c849 373d
000003d0: f834 1fbd 1eab cf3d b4d2 80bd 5077 28bc
000003e0: 62ff b03d 041b 74bd 20ea 79bd 2408 023d
000003f0: a894 7fbd dc1b ef3d e02d 63bc c072 cebd
